CI_course/CI_EX10/cifar_net.pth (torch, 368607 bytes, 10 tensors)

conv1.weight f4 [16, 3, 5, 5]
0.07474881 -0.10329673 -0.4844678 -0.04809814 0.16542563 -0.3564901 -0.23365311 0.028194748
0.52789164 -0.086382546 0.07824509 0.58306444 1.0598089 0.21930514 -0.53494585 0.36248547
0.20295106 -0.20976657 -0.72297996 -0.17533897 -0.07787872 -0.4572372 -0.51011574 -0.12318571
0.37317306 0.13259637 0.1360556 -0.39191952 0.087489404 0.21348894 -0.2445085 -0.1935389
0.061825376 0.581889 -0.013445028 -0.012126485 0.6301119 0.91892266 0.25004613 -0.35512817
0.36229244 0.15845445 -0.19466577 -0.71024925 -0.22055744 -0.08485925 -0.5671337 -0.5703189
-0.17261697 0.46890005 0.20859654 -0.0028507174 -0.31181622 -0.040015705 0.328712 -0.4489671
-0.4878614 -0.29259688 0.32574674 -0.06593245 -0.09228222 0.31170002 0.8008224 0.050393492
-0.428558 0.1832004 0.29088882 -0.15544005 -0.46870682 -0.18801898 -0.06838073 -0.37757954
-0.3799032 0.17656678 0.6129003 0.6067523 0.55425084 0.5955369 0.676347 0.31102997
0.395362 0.40632254 0.56694055 0.37682202 0.11467461 0.0274494 0.20341967 0.2286409
0.2187736 0.030645607 -0.57242256 -0.45022014 -0.21144406 -0.29093146 -0.2477068 -0.6157415
-0.6819703 -0.59148306 -0.5084712 -0.42591304 -0.10663004 -0.26737928 -0.31885839 -0.34564605
-0.3700297 -0.28258985 -0.16835952 -0.31013626 -0.3313178 -0.50356865 -0.08481549 0.03369123
0.10444056 -0.1587687 -0.20129095 -0.0684424 0.059872705 0.027248891 0.061122015 0.019696482
0.10781793 -0.00040182628 -0.04478794 -0.0603179 0.20949815 -0.2100358 -0.23112795 -0.31701636
-0.39003703 -0.023496935 -0.27602175 -0.45643324 -0.57183576 -0.4843687 -0.17393097 0.123557955
0.22113934 0.07104644 0.1968447 0.046008747 0.3019332 0.4453238 0.47627816 0.5025353
0.5314919 0.38892874 0.47588304 0.33580118 0.36515737 0.31182957 0.22956 -0.0061291186
-0.2559609 -0.30879882 0.1574024 -0.068386726 0.019345224 -0.1451671 0.021315778 -0.0030727598
-0.37788478 -0.27506882 0.22774833 0.481554 -0.20842731 -0.69695634 -0.35661834 0.45447844
0.5327402 -0.17328802 -0.24079303 -0.16321181 0.04115702 0.19948696 0.11704098 0.10234457
0.17626497 -0.16488129 -0.241225 0.18697925 0.08832012 -0.003911175 -0.05755902 0.08704742
0.22353637 -0.37319213 -0.2900558 0.2631144 0.51710206 -0.025795208 -0.5667477 -0.2940341
0.4723345 0.49047235 -0.08522719 -0.08370508 -0.15715273 0.15055037 0.29346928 0.09221069
0.08277525 0.07864755 -0.25207922 -0.44052908 -0.0124889 0.035812166 0.044690464 -0.010098141
-0.06419037 -0.013497459 -0.34607106 -0.07935116 0.36170548 0.34829623 -0.29003468 -0.45679146
-0.20340745 0.6500749 0.3936107 -0.36890712 -0.054684356 0.15566021 0.37558022 0.21772793
-0.24441639 -0.106598206 0.14480518 -0.10855177 0.1462938 -0.118559346 -0.034160387 0.50130427
-0.5048084 0.22746345 -0.20701142 -0.16902776 0.7619971 -1.1873932 0.6538529 -0.24203326
0.22249396 0.71021044 -1.5435348 0.9897898 -0.34332693 0.36510047 0.32124245 -1.1818739
0.8231135 -0.31800428 0.075368695 0.058417447 -0.26488703 0.084031284 0.083395235 0.03556442
00000000: e715 993d 3c8d d3bd 2a0c f8be 8e02 45bd
00000010: 5665 293e df85 b6be c342 6fbe acf8 e63c
00000020: e823 073f 55e9 b0bd f63e a03d b643 153f
00000030: d1a7 873f 8791 603e 36f2 08bf b297 b93e
00000040: 67d2 4f3e 0ccd 56be 3715 39bf 0f8c 33be
00000050: e17e 9fbd ff1a eabe f296 02bf ca48 fcbd
00000060: 8a10 bf3e 58c7 073e 2952 0b3e ada9 c8be
00000070: a52d b33d d89c 5a3e 7060 7abe 102f 46be
00000080: 9b3c 7d3d adf6 143f 8948 5cbc 2aae 46bc
00000090: 034f 213f 843e 6b3f 0c06 803e 5cd3 b5be
000000a0: 657e b93e e241 223e 7756 47be e5d2 35bf
000000b0: cfd9 61be b0ca adbd ad2f 11bf 6b00 12bf
000000c0: 81c2 30be ab13 f03e 559a 553e 1ad3 3abb
000000d0: 60a6 9fbe 82e7 23bd f04c a83e 04df e5be
000000e0: f8c8 f9be 42cf 95be 47c8 a63e 9807 87bd
000000f0: 76fe bcbd 2597 9f3e b202 4d3f 6869 4e3d
00000100: f46b dbbe e398 3b3e 61ef 943e ad2b 1fbe
00000110: 57fa efbe 0c88 40be 320b 8cbd 1b52 c1be
00000120: ac82 c2be eccd 343e 09e7 1c3f 1e54 1b3f
00000130: 62e3 0d3f 1b75 183f 1425 2d3f 523f 9f3e
00000140: e36c ca3e 8209 d03e 0423 113f d1ee c03e
00000150: 86da ea3d 90dd e03c 3f4d 503e d720 6a3e
00000160: 3006 603e 7f0c fb3c 498a 12bf 4183 e6be
00000170: cb84 58be f8f4 94be daa6 7dbe 3ca1 1dbf
00000180: 9b95 2ebf 6f6b 17bf 2b2b 02bf 4611 dabe
00000190: da60 dabd f0e5 88be 6841 a3be 85f8 b0be
000001a0: 8874 bdbe 9eaf 90be 7066 2cbe 2eca 9ebe
000001b0: 7da2 a9be e0e9 00bf beb3 adbd d1ff 093d
000001c0: efe4 d53d 4394 22be 371f 4ebe 872b 8cbd
000001d0: 153d 753d 1139 df3c 145b 7a3d 845a a13c
000001e0: a6cf dc3d 36ac d2b9 8f73 37bd e70f 77bd
000001f0: af86 563e a013 57be ceac 6cbe f84f a2be
00000200: efb2 c7be a57c c0bc b952 8dbe 9eb1 e9be
00000210: d463 12bf 2dff f7be f61a 32be f40b fd3d
00000220: 5a72 623e cc80 913d a891 493e ab73 3c3d
00000230: fd96 9a3e 7b01 e43e bbda f33e 27a6 003f
00000240: da0f 083f ab21 c73e f1a6 f33e 22ee ab3e
00000250: e8f5 ba3e 20a8 9f3e c711 6b3e c6d6 c8bb
00000260: 4f0d 83be e11a 9ebe 182e 213e 570e 8cbd
00000270: e079 9e3c afa6 14be 6d9e ae3c 5b60 49bb
00000280: 1d7a c1be d2d5 8cbe dc36 693e 3f8e f63e
00000290: f86d 55be bb6b 32bf ae96 b6be 66b1 e83e
000002a0: a961 083f 6a72 31be 7392 76be ff20 27be
000002b0: 4394 283d 4f46 4c3e 2eb3 ef3d 089a d13d
000002c0: ce7e 343e a4d6 28be b003 77be 7d77 3f3e
000002d0: 2ee1 b43d 5029 80bb 02c3 6bbd eb45 b23d
000002e0: b8e6 643e 0a13 bfbe 3282 94be eeb6 863e
000002f0: cd60 043f 7950 d3bc 6116 11bf a38b 96be
00000300: d4d5 f13e 311f fb3e 988b aebd 926d abbd
00000310: a5ec 20be e029 1a3e 9b41 963e f5d8 bc3d
00000320: 1286 a93d f711 a13d 8710 81be 078d e1be
00000330: 3e9e 4cbc c7af 123d 590d 373d ac72 25bc
00000340: 3e76 83bd 7224 5dbc 3a30 b1be dc82 a2bd
00000350: 7631 b93e e253 b23e 6d7f 94be 92e0 e9be
00000360: 0b4a 50be 4f6b 263f 5787 c93e 65e1 bcbe
00000370: b4fc 5fbd 6465 1f3e 0d4c c03e 12f4 5e3e
00000380: 4a48 7abe 2950 dabd cf47 143e 6450 debd
00000390: 0bce 153e 3ecf f2bd c3eb 0bbd 7a55 003f
000003a0: 203b 01bf 2eec 683e cdfa 53be 9d15 2dbe
000003b0: 3e12 433f 80fc 97bf e762 273f 91d7 77be
000003c0: 75d5 633e 5ad0 353f 8c92 c5bf dd62 7d3f
000003d0: 8cc8 afbe 73ee ba3e e479 a43e a547 97bf
000003e0: 91b7 523f 75d1 a2be e75a 9a3d 2247 6f3d
000003f0: 469f 87be 9818 ac3d 1fcb aa3d ffab 113d

conv1.bias f4 [16]
-0.69981945 -0.5934166 -0.5255049 -0.44122696 -0.5445564 -0.6960382 -0.12193362 -1.2571336
-0.7708628 -0.5481806 -0.82114065 -0.019946696 -0.63976526 -0.67593545 -0.7641168 -0.48422202
00000000: 5e27 33bf 26ea 17bf 7d87 06bf 80e8 e1be
00000010: 0c68 0bbf 8f2f 32bf 55b8 f9bd c1e9 a0bf
00000020: 4457 45bf 9055 0cbf 4636 52bf 4167 a3bc
00000030: a8c7 23bf 1b0a 2dbf 299d 43bf f3eb f7be

conv2.weight f4 [24, 16, 5, 5]
0.25787437 0.09127526 0.09106179 0.0020918192 0.13914585 -0.04543096 -0.09254277 -0.08501514
0.0015622363 0.10523337 0.03473542 -0.16920483 -0.04992837 0.11829933 0.09510825 -0.14255738
0.04060314 0.033784695 -0.065725386 0.061075605 -0.01019145 -0.07553089 -0.16987053 -0.12206798
0.08674083 0.20536534 0.13504866 0.09032885 0.032350946 0.12886545 0.0884354 0.00729627
0.038575623 0.040448617 0.07627615 0.08854071 -0.05346025 -0.02379013 -0.04453219 -0.035082683
-0.028042769 -0.026752029 -0.102861084 -0.13114733 0.0138910115 0.10558285 -0.022600219 -0.019010829
0.0030642499 0.12346077 -0.43590772 -0.2536595 -0.13151854 -0.18745784 -0.21029034 -0.21570311
-0.27015406 -0.14549358 -0.15407431 -0.21068443 0.11907569 -0.24593735 -0.08974183 -0.1664508
-0.12856968 0.28753594 -0.040687215 -0.2046026 -0.19921888 -0.102605715 0.018204605 -0.0672497
-0.064299636 -0.08308486 -0.031566203 -0.24573931 -0.16758618 -0.21229464 -0.32287988 -0.21170619
-0.42947266 -0.2655506 -0.3082153 -0.26947552 -0.18690546 -0.2794184 -0.28863823 -0.35289547
-0.029173328 -0.17894965 -0.10293084 -0.23580638 -0.19567123 0.06116745 0.026596911 0.0880268
-0.22152059 0.024751395 0.010801285 0.15608183 0.0980968 0.12837647 0.005590932 -0.01741214
-0.082024574 -0.02309918 -0.17978272 -0.27264193 -0.17849359 -0.18839604 -0.16616929 -0.21902
-0.1907271 -0.09912633 -0.20792344 -0.12895016 -0.123943076 -0.056676958 0.09064185 0.09290142
-0.05204242 -0.2412845 -0.08713292 0.04256412 0.17646532 -0.19998865 -0.22971678 -0.09930677
-0.091791764 -0.061473355 -0.18094039 -0.1652064 -0.1738216 -0.1950281 -0.121667124 -0.025719678
-0.09810962 -0.05201224 -0.047609285 -0.10758483 0.23107553 0.03704893 -0.08601994 0.0011335766
-0.0033986045 0.19159704 0.03973563 -0.08592048 0.06193265 0.06431294 -0.032488875 -0.10245471
-0.098516576 -0.03502242 0.1407423 -0.044420376 -0.056622874 -0.07307685 -0.016766816 0.08032106
0.023378981 -0.11153072 0.022741476 -0.065392844 0.07147874 0.09105368 -0.07289901 -0.04660303
-0.039317694 -0.0045681 0.037800204 0.0062660268 0.034774445 0.039718684 0.11644801 0.0030017076
-0.0015750298 -0.07416191 -0.081434496 -0.009442207 -0.07119548 -0.123102896 -0.119942315 -0.067910455
-0.03667922 0.006849372 -0.0043436117 0.0006585017 -0.0037650364 0.09062096 0.05284987 0.04397763
0.038622797 0.054186247 0.1434067 0.022887243 -0.02609829 0.005269387 0.02243142 0.10432923
0.22285666 0.21996649 0.17317846 0.11554514 0.40717727 0.019646334 -0.037206963 0.07642653
0.15998705 0.14833185 0.18011469 -0.102795124 -0.1319265 -0.029489728 0.023524418 0.03831773
0.09839248 0.07292179 -0.09276075 -0.041209675 0.04589866 -0.064581774 -0.10617958 -0.09783281
-0.019246075 0.0945609 0.023763364 -0.07936335 -0.17969134 -0.06620948 0.20218238 -0.054947257
-0.060306728 -0.030639967 0.0019917286 0.110781126 0.024433156 -0.08024128 -0.013329241 0.0061641377
0.021031817 0.05120093 -0.04927986 -0.093348786 -0.062489513 -0.0366916 -0.043349445 -0.11777152
-0.10159442 -0.07768582 0.11966288 -0.028282547 0.03757695 0.1551351 0.022318171 0.029686442
00000000: 1c08 843e 86ee ba3d 9b7e ba3d e716 093b
00000010: 407c 0e3e d015 3abd 1087 bdbd 6b1c aebd
00000020: f4c3 cc3a 9884 d73d ba46 0e3d 0844 2dbe
00000030: b181 4cbd eb46 f23d 1dc8 c23d 90fa 11be
00000040: 7a4f 263d d261 0a3d 089b 86bd 6a2a 7a3d
00000050: 0afa 26bc f0af 9abd 8af2 2dbe c7fe f9bd
00000060: 2da5 b13d 4b4b 523e 324a 0a3e 55fe b83d
00000070: 6d82 043d 4ef5 033e 9e1d b53d 8d15 ef3b
00000080: 7901 1e3d 73ad 253d ac36 9c3d d554 b53d
00000090: 23f9 5abd 85e3 c2bc 6367 36bd dcb2 0fbd
000000a0: f3b9 e5bc 1227 dbbc d5a8 d2bd 7c4b 06be
000000b0: 2097 633c d23b d83d 1824 b9bc 99bc 9bbc
000000c0: 95d1 483b 00d9 fc3d 4c2f dfbe a8df 81be
000000d0: ccac 06be f3f4 3fbe 5a56 57be 47e1 5cbe
000000e0: a251 8abe 45fc 14be a8c5 1dbe a9bd 57be
000000f0: f5dd f33d 00d7 7bbe 91ca b7bd 1472 2abe
00000100: c5a7 03be e937 933e a3a7 26bd 5883 51be
00000110: 0900 4cbe f222 d2bd d321 953c 36ba 89bd
00000120: 87af 83bd 6528 aabd 904b 01bd 16a3 7bbe
00000130: b69b 2bbe c463 59be 8350 a5be 82c9 58be
00000140: d7e3 dbbe 40f6 87be 65ce 9dbe b2f8 89be
00000150: 2564 3fbe ee0f 8fbe 64c8 93be b7ae b4be
00000160: e7fc eebc 943e 37be 67cd d2bd 3a77 71be
00000170: 0a5e 48be b88a 7a3d c4e1 d93c 6547 b43d
00000180: 4bd6 62be 70c3 ca3c dff7 303c ead3 1f3e
00000190: fae6 c83d 1f75 033e 2334 b73b e7a3 8ebc
000001a0: 80fc a7bd 7e3a bdbc f618 38be b997 8bbe
000001b0: 06c7 36be e4ea 40be 4828 2abe c746 60be
000001c0: f74d 43be bf02 cbbd e2e9 54be 830b 04be
000001d0: ded5 fdbd 1926 68bd 6fa2 b93d 1a43 be3d
000001e0: 6f2a 55bd 4913 77be bf72 b2bd b757 2e3d
000001f0: 53b3 343e d3c9 4cbe e03a 6bbe 5961 cbbd
00000200: 52fd bbbd 7ccb 7bbd 7048 39be de2b 29be
00000210: 4afe 31be 72b5 47be 9d2c f9bd 13b2 d2bc
00000220: b2ed c8bd c90a 55bd f401 43bd 6f55 dcbd
00000230: 109f 6c3e 9ec0 173d 392b b0bd 8594 943a
00000240: 1fbb 5ebb 0432 443e d4c1 223d 14f7 afbd
00000250: 17ad 7d3d 81b6 833d 0e13 05bd c6d3 d1bd
00000260: 0fc3 c9bd ab73 0fbd c01e 103e 24f2 35bd
00000270: 63ed 67bd 51a9 95bd 905a 89bc 5e7f a43d
00000280: 4785 bf3c 386a e4bd 554c ba3c afec 85bd
00000290: 7263 923d 5a7a ba3d 134c 95bd d2e2 3ebd
000002a0: 970b 21bd 00b0 95bb 63d4 1a3d 3e53 cd3b
000002b0: a66f 0e3d 0fb0 223d 4b7c ee3d 4cb8 443b
000002c0: 3b71 ceba 33e2 97bd 21c7 a6bd 7db3 1abc
000002d0: f0ce 91bd 5f1d fcbd 51a4 f5bd a314 8bbd
000002e0: f33c 16bd b270 e03b db54 8ebb 4d9f 2c3a
000002f0: d4be 76bb 7b97 b93d 1b79 583d e321 343d
00000300: f032 1e3d 66f2 5d3d 35d9 123e 077e bb3c
00000310: 15cc d5bc d2aa ac3b 19c2 b73c 90aa d53d
00000320: 8934 643e e53e 613e b255 313e eea2 ec3d
00000330: 8a79 d03e 59f1 a03c 5466 18bd 8385 9c3d
00000340: a5d3 233e 4ee4 173e fc6f 383e 4086 d2bd
00000350: be17 07be 7194 f1bc 48b6 c03c 0df3 1c3d
00000360: ff81 c93d 0558 953d 59f9 bdbd 7acb 28bd
00000370: 3c00 3c3d 7343 84bd ae74 d9bd 915c c8bd
00000380: f2a9 9dbc 25a9 c13d 63ab c23c 4189 a2bd
00000390: 0201 38be d698 87bd e608 4f3e 6010 61bd
000003a0: 3004 77bd ab00 fbbc a987 023b 37e1 e23d
000003b0: 0b28 c83c 8a55 a4bd e462 5abc 89fc c93b
000003c0: eb4a ac3c 11b8 513d aed9 49bd a62d bfbd
000003d0: 01f5 7fbd ee49 16bd 308f 31bd 3232 f1bd
000003e0: bc10 d0bd be19 9fbd d011 f53d cdb0 e7bc
000003f0: 4aea 193d bcdb 1e3e 99d4 b63c fb30 f33c

conv2.bias f4 [24]
0.76739085 -1.2259061 0.64488614 0.43368477 1.5740584 0.41926965 0.1570045 0.23898892
1.3936938 -1.0012721 0.82095784 -1.2634954 -0.022803877 0.18723457 0.1482832 -0.36808977
0.05864168 -0.0043090326 -0.602386 0.3654682 -0.2000766 0.14478168 -0.1999926 0.7945748
00000000: ba73 443f 7eea 9cbf 4217 253f ee0b de3e
00000010: bf7a c93f 83aa d63e cac5 203e 83b9 743e
00000020: 8f64 b23f af29 80bf 4b2a 523f 38ba a1bf
00000030: 32cf babc 6bba 3f3e 8dd7 173e 4376 bcbe
00000040: 4232 703d c932 8dbb f835 1abf a61e bb3e
00000050: e1e0 4cbe a641 143e dcca 4cbe 4169 4b3f

fc1.weight f4 [120, 600]
0.05653651 -0.035103466 -0.052262597 0.040166706 0.03231793 -0.03853441 -0.11165254 -0.16386992
0.022216529 -0.027747557 0.06114767 -0.07276275 -0.09340056 -0.083379164 -0.027124409 0.051017463
0.057375714 0.034850657 -0.0004994849 0.07726235 -0.0003846389 0.10939069 0.09602112 0.071987346
0.16765411 0.05798355 0.07021752 0.085127965 -0.030228628 0.023837842 0.15946408 0.07824675
0.048718248 0.046981823 -0.031997032 0.10975518 -0.064293295 -0.09317456 -0.16740595 -0.075248405
0.029225122 -0.050349955 -0.15970613 -0.07213325 -0.11192909 -0.09534353 -0.10566319 -0.14271265
-0.17744978 -0.16079761 -0.051065203 -0.013931952 0.04432508 0.1164742 0.06063634 0.00650518
0.07514764 0.06529402 0.0009768604 0.043694958 0.028801814 -0.06283287 -0.11018528 -0.07138171
-0.013033427 0.03023084 -0.049203925 -0.020467978 0.004762528 -0.025162429 -0.03557929 -0.0013273675
0.021749375 -0.06738204 -0.070511386 -0.045460038 0.033440825 -0.0009884463 0.023943452 -0.0059142206
0.020720482 0.037062883 0.010164061 0.05006165 -0.050402544 0.07007793 0.051945977 0.0210036
-0.019600289 -0.016103698 0.10081136 0.03546929 0.15046348 -0.008468587 -0.103689045 0.27315965
0.11509066 0.1484918 -0.042442866 -0.088346645 0.08160732 0.14409354 0.097617246 -0.036949452
-0.052729193 -0.02027517 0.04333439 0.10754425 0.07833277 -0.0347096 0.022696009 -0.003318647
-0.037519895 0.0025012358 -0.019012298 0.03676334 0.067192815 0.0060239057 -0.08086186 -0.036208615
-0.0031673908 0.0053578415 -0.034857523 0.047594443 -0.0404483 0.044602647 0.042248826 -0.0072830636
0.097893514 0.07543476 0.036108598 0.04099553 -0.11526974 -0.07248604 0.055928886 -0.0019938995
-0.018826589 -0.014785748 -0.04461322 -0.0018582677 -0.016432237 -0.00035424947 -0.06444102 0.040639307
-0.02231438 0.051481277 0.0062670293 -0.051448625 -0.010209915 0.02594 0.041385323 0.012218644
-0.172989 -0.12320223 0.07710959 0.07234627 -0.008820358 -0.079852514 -0.022509478 0.10484402
-0.031816404 -0.08738006 0.083075665 0.14753069 0.12411337 0.041934106 -0.1221758 0.09652647
0.08292336 0.053602714 0.2605559 0.010874834 0.07403057 0.08451392 0.19484666 0.08130046
-0.0028165122 -0.0045928597 -0.04008337 0.09224917 0.0386513 0.04696308 -0.023548776 0.027633373
0.073555134 0.053828906 0.15406007 0.114942916 0.05976326 0.027444657 0.06478189 0.20223978
0.05763506 0.11936862 0.048511446 0.10273113 0.05322489 0.102555275 0.05144556 0.029805908
0.062908985 0.08477824 0.02265321 -0.0012108019 0.010411053 0.057693873 0.007812631 0.011290142
-0.092172936 0.0042019826 0.032074127 -0.07001445 -0.13581192 -0.073823854 0.019230558 0.11541928
0.05619173 -0.026302533 -0.017855942 0.027254054 -0.116215155 0.008381785 -0.049070388 -0.060426954
-0.028087124 -0.03643456 -0.06976105 -0.069487594 -0.025925675 0.05413261 -0.021595055 -0.0990784
-0.07349202 -0.035718814 -0.037228696 -0.015952703 -0.00064783136 0.0018471339 0.043162722 0.0792114
-0.09830267 -0.11236329 -0.050031547 -0.08490811 -0.04801416 -0.12539409 -0.15644692 -0.021391662
-0.14298241 -0.21497321 0.11521544 0.034438897 0.08547502 0.15724544 0.12004028 0.111053206
00000000: d492 673d a7c8 0fbd 4e11 56bd d885 243d
00000010: ce5f 043d 42d6 1dbd 16aa e4bd 84cd 27be
00000020: 70ff b53c d84e e3bc fb75 7a3d a304 95bd
00000030: cb48 bfbd b2c2 aabd 0234 debc b0f7 503d
00000040: cc02 6b3d 90bf 0e3d ddef 02ba b93b 9e3d
00000050: 5ca9 c9b9 3a08 e03d b9a6 c43d 1a6e 933d
00000060: 85ad 2b3e 2980 6d3d 34ce 8f3d 9257 ae3d
00000070: 07a2 f7bc 9447 c33c 8d4a 233e d53f a03d
00000080: c98c 473d 0370 403d 520f 03bd 53c7 e03d
00000090: 34ac 83bd 4ed2 bebd 776c 2bbe d61b 9abd
000000a0: 8669 ef3c c13b 4ebd 018a 23be 99ba 93bd
000000b0: 143b e5bd 7843 c3bd f165 d8bd 4423 12be
000000c0: 65b5 35be 21a8 24be bf29 51bd d842 64bc
000000d0: 378e 353d 068a ee3d d05d 783d 6829 d53b
000000e0: 02e7 993d dfb8 853d ff09 803a 7cf9 323d
000000f0: c8f1 eb3c 85ae 80bd d2a8 e1bd 9330 92bd
00000100: 288a 55bc aba6 f73c 0e8a 49bd 76ac a7bc
00000110: fb0e 9c3b 7021 cebc 97bb 11bd 10fb adba
00000120: bf2b b23c 98ff 89bd 4668 90bd 4e34 3abd
00000130: 3ff9 083d c18e 81ba 0f25 c43c 14cc c1bb
00000140: 00be a93c 40cf 173d 2987 263c 720d 4d3d
00000150: e672 4ebd 0585 8f3d 4ec5 543d be0f ac3c
00000160: c990 a0bc e7eb 83bc 3076 ce3d 3f48 113d
00000170: 1913 1a3e d4bf 0abc ec5a d4bd 95db 8b3e
00000180: a7b4 eb3d 3c0e 183e 92d8 2dbd 16ef b4bd
00000190: bd21 a73d 428d 133e 8deb c73d 4f58 17bd
000001a0: 91fa 57bd 1d18 a6bc 677f 313d 2940 dc3d
000001b0: ee6c a03d a72b 0ebd fbec b93c a87d 59bb
000001c0: 76ae 19bd c6eb 233b aebf 9bbc 2895 163d
000001d0: 639c 893d 2f64 c53b e79a a5bd 7c4f 14bd
000001e0: 0094 4fbb d590 af3b c3c6 0ebd 64f2 423d
000001f0: 1ead 25bd 44b1 363d 1b0d 2d3d c4a6 eebb
00000200: 657c c83d 8a7d 9a3d 9ce6 133d eeea 273d
00000210: 8b12 ecbd 9073 94bd b015 653d 15ac 02bb
00000220: 383a 9abc ec3f 72bc 5abc 36bd 1e91 f3ba
00000230: e69c 86bc 8fba b9b9 a7f9 83bd 6775 263d
00000240: a6cc b6bc 08de 523d a75b cd3b cbbb 52bd
00000250: 7d47 27bc 1f80 d43c a883 293d b530 483c
00000260: 0724 31be 7351 fcbd a2eb 9d3d 482a 943d
00000270: 4383 10bc b789 a3bd cc65 b8bc 76b8 d63d
00000280: eb51 02bd 51f4 b2bd 9323 aa3d 4912 173e
00000290: 272f fe3d 19c3 2b3d 4e37 fabd abaf c53d
000002a0: b9d3 a93d 858e 5b3d 9567 853e 5c2c 323c
000002b0: 579d 973d a215 ad3d e285 473e db80 a63d
000002c0: 3c95 38bb b37f 96bb 762e 24bd 22ed bc3d
000002d0: d350 1e3d 5c5c 403d 5de9 c0bc 625f e23c
000002e0: 13a4 963d b37b 5c3d ecc1 1d3e 3167 eb3d
000002f0: 52ca 743d 9ed3 e03c 5eac 843d f217 4f3e
00000300: be12 6c3d 8977 f43d f0b3 463d b364 d23d
00000310: 5802 5a3d 8008 d23d 94b8 523d 852b f43c
00000320: 6dd6 803d 37a0 ad3d 3a93 b93c c5b3 9eba
00000330: 1f93 2a3c 6950 6c3d 8d00 003c 4afa 383c
00000340: 2ac5 bcbd c9b0 893b 2960 033d bc63 8fbd
00000350: 4812 0bbe f630 97bd 6789 9d3c f260 ec3d
00000360: 4d29 663d 6978 d7bc a046 92bc e543 df3c
00000370: 3602 eebd c153 093c 08fe 48bd 4182 77bd
00000380: f816 e6bc 683c 15bd e2de 8ebd 834f 8ebd
00000390: 1562 d4bc 28ba 5d3d 1de8 b0bc 9ee9 cabd
000003a0: fc82 96bd e44d 12bd 1e7d 18bd 3eaf 82bc
000003b0: 3ad3 29ba 871b f23a 65cb 303d 9639 a23d
000003c0: e952 c9bd b91e e6bd e1ed 4cbd 4ee4 adbd
000003d0: 7faa 44bd 4f67 00be 9f33 20be 913d afbc
000003e0: fb69 12be f021 5cbe 13f6 eb3d cd0f 0d3d
000003f0: 870d af3d f304 213e aed7 f53d dd6f e33d

fc1.bias f4 [120]
0.2688566 -0.064399906 0.009170323 0.006524183 -0.2297977 -0.013124211 -0.014053025 -0.087197706
0.0479318 0.41804036 -0.092788644 -0.033027012 0.45510402 -0.03394481 -0.02126805 0.3053136
0.04146381 0.35313174 -0.02767924 0.049460884 0.29375988 0.14292149 -0.0127734775 0.19635081
0.01480707 0.39193347 -0.10906171 -0.1582297 -0.08362817 0.006011938 0.06641869 0.045555312
0.094002075 0.040046833 -0.14203061 0.066966765 0.03537967 0.035986412 0.089860134 -0.08469365
0.011550629 0.05421633 0.40761065 -0.013115453 -0.035447493 0.07579559 0.051220603 0.12051927
-0.19011788 -0.018739877 -0.13410245 0.059477195 -0.030025743 -0.14635175 -0.008236997 0.04899159
-0.071466826 0.16764703 0.14115714 0.0051198117 0.35974 -0.035185225 0.076234005 0.032691456
-0.119109385 0.16520917 0.05961071 -0.017260164 -0.15485084 -0.06272433 0.07346199 0.02719084
-0.021260286 0.11532115 -0.0029801289 0.06847317 0.1384398 0.040636126 -0.005547688 0.06495078
-0.20117313 -0.0014186054 -0.026771221 0.22262992 0.2265591 0.039381947 -0.10155238 0.21149088
0.34769186 0.012654554 -0.012967302 -0.076001935 -0.083421074 -0.094260864 0.04203724 0.4526556
0.156231 -0.0014780234 0.038942825 0.052462116 -0.03588572 -0.019635607 -0.037059687 0.10424739
0.10548474 0.13560376 0.1105432 0.0023067219 0.029625187 0.13638422 -0.043947015 -0.07009967
0.018107936 -0.02824438 -0.037093718 0.032286085 0.009385619 -0.0003762526 0.0685275 -0.027521957
00000000: 93a7 893e 19e4 83bd 1f3f 163c d0c8 d53b
00000010: 1750 6bbe ee06 57bc a93e 66bc b694 b2bd
00000020: 2354 443d 6309 d63e f907 bebd 5547 07bd
00000030: 6503 e93e b709 0bbd 553a aebc 1052 9c3e
00000040: f5d5 293d afcd b43e 93bf e2bc 7f97 4a3d
00000050: b267 963e 035a 123e d947 51bc 3010 493e
00000060: 5a99 723c 81ab c83e bf5b dfbd f706 22be
00000070: 3f45 abbd cbff c43b 8606 883d 3598 3a3d
00000080: 2984 c03d 2608 243d 7970 11be df25 893d
00000090: 46ea 103d 7d66 133d 9708 b83d dd73 adbd
000000a0: d93e 3d3c f111 5e3d 58b2 d03e 32e2 56bc
000000b0: 6431 11bd b83a 9b3d b2cc 513d cfd2 f63d
000000c0: 43ae 42be 5f84 99bc 2752 09be 5c9e 733d
000000d0: 8cf8 f5bc 3cdd 15be 78f4 06bc 68ab 483d
000000e0: 335d 92bd aaab 2b3e 7f8b 103e 18c4 a73b
000000f0: d72f b83e 621e 10bd 9320 9c3d 7ae7 053d
00000100: 9fef f3bd 982c 293e 5c2a 743d 3065 8dbc
00000110: 3891 1ebe 9d75 80bd 3d73 963d 53bf de3c
00000120: 0d2a aebc 7f2d ec3d 444e 43bb a93b 8c3d
00000130: 2ac3 0d3e 1172 263d 61c9 b5bb ea04 853d
00000140: 5400 4ebe 80f0 b9ba 524f dbbc 19f9 633e
00000150: 1cff 673e f74e 213d b2fa cfbd 1191 583e
00000160: ab04 b23e 0c55 4f3c cf74 54bc e7a6 9bbd
00000170: abd8 aabd d70b c1bd 3e2f 2c3d 7ac2 e73e
00000180: 05fb 1f3e 3cba c1ba 8382 1f3d 84e2 563d
00000190: e8fc 12bd dada a0bc e6cb 17bd a87f d53d
000001a0: 6208 d83d b6db 0a3e 7964 e23d 5f2c 173b
000001b0: 85b0 f23c 4ea8 0b3e c901 34bd 6a90 8fbd
000001c0: 1857 943c c260 e7bc 95ef 17bd 6a3e 043d
000001d0: 24c6 193c c543 c5b9 2558 8c3d ba75 e1bc

fc2.weight f4 [64, 120]
-0.013450989 -0.09429483 0.28594154 -0.115563154 0.07342044 0.030418267 -0.021818282 -0.016370108
-0.045509305 -0.062365565 -0.016522443 0.094108306 0.025880154 -0.07206826 0.119755015 -0.04414167
0.0650082 -0.09500085 0.019185804 0.069719285 -0.00905132 -0.085136436 0.03741334 -0.065986514
0.058039002 -0.028791107 0.09343732 0.014296911 -0.05850468 -0.043097418 -0.11008608 -0.047792025
0.15856239 -0.011750008 -0.070950784 0.026240276 0.00016812184 0.112479396 0.055344645 -0.07994347
-0.046313394 0.01410688 0.1534966 0.016280985 0.110267185 -0.0010444735 -0.053545117 -0.062155653
-0.14184682 0.12211165 -0.14207979 -0.0044198474 0.25308982 -0.25737023 -0.09022609 -0.1263713
0.084293775 -0.029497836 -0.028826334 0.029867593 0.018081635 0.054005664 -0.084690586 -0.043040976
-0.10756449 -0.037905186 -0.06414395 0.07719517 -0.06331931 0.07962837 0.03163575 -0.017962802
-0.06879518 0.10580917 -0.058324747 0.10902977 0.060572572 -0.047390487 0.07210409 -0.05359342
0.068517745 -0.056959394 -0.015119275 -0.0076814615 0.061774865 -0.018840203 -0.031381622 -0.0692011
0.0054612015 -0.103145964 0.075852625 0.06912467 -0.03677598 -0.11898313 0.13024718 -0.09187337
-0.089018196 0.059448525 -0.10540749 0.025248878 -0.0027045826 -0.013874861 -0.028758986 -0.11467588
-0.114141494 -0.14228685 -0.06063663 -0.061672654 0.0768311 0.06773075 0.03239469 -0.069487944
-0.059689026 -0.14376725 -0.08612494 0.0036615618 -0.056124434 0.066797696 -0.16425157 -0.060004346
-0.099786706 0.08785708 0.098411895 0.22523953 -0.1719368 -0.2456439 0.0995101 -0.1710945
-0.12854986 0.08214985 0.101935655 -0.0037576489 0.021343637 0.009548145 -0.15287788 -0.019461052
0.05623968 0.07608946 0.045042343 -0.07134358 -0.1103702 -0.023645785 -0.14805542 0.13434908
-0.0643601 0.025057258 -0.060844373 0.10933323 0.000732408 -0.05167358 -0.15919708 0.013893448
0.059448525 0.05202859 -0.16940543 -0.05842271 0.0156076355 0.04491383 -0.099605724 -0.1748706
0.10918197 -0.04115127 0.004227448 -0.055099405 -0.03742152 -0.056040484 -0.07718849 -0.06884894
-0.16295165 -0.12336776 0.0084605925 -0.21014774 0.13528226 0.09596948 -0.1353784 0.016213946
-0.15060773 -0.009410694 -0.08942538 -0.06659075 0.21287747 -0.18540727 -0.16820261 -0.10117373
-0.12115739 0.01703174 0.018604036 -0.17334057 0.13436703 -0.15595599 -0.14624469 -0.09421318
-0.0060436134 -0.2444681 -0.01931732 0.122485906 -0.024203602 -0.1513537 0.08564871 -0.089817986
0.08081237 0.13844675 -0.17279404 0.14401594 0.120028555 0.07441362 -0.054869004 0.11332137
0.016628742 0.113205664 -0.018274682 -0.14820768 0.15705813 0.041827615 0.018202057 0.19682823
0.005664951 -0.020251961 -0.17700073 -0.07329681 -0.16383338 0.0049946485 -0.0226387 0.06928756
-0.16953048 -0.24738036 -0.041902237 -0.18957882 0.029433459 -0.24861637 0.016939618 -0.2441149
-0.06446143 -0.113692544 -0.046516325 -0.09777654 0.040381502 -0.008121041 -0.15094359 -0.24581692
-0.11457836 0.08846476 -0.047084507 0.10118097 -0.010244653 -0.081208825 -0.048153214 0.031158714
0.1731132 -0.012920996 0.102477536 -0.0033456997 0.014016454 -0.11508231 0.036086407 -0.060094245
00000000: 8961 5cbc a61d c1bd ee66 923e 60ac ecbd
00000010: 755d 963d bb2f f93c 41bc b2bc 9b1a 86bc
00000020: f767 3abd 0973 7fbd 135a 87bc dbbb c03d
00000030: 9e02 d43c 8698 93bd 1e42 f53d e5cd 34bd
00000040: 0523 853d ce8f c2bd 8c2b 9d3c fcc8 8e3d
00000050: fd4b 14bc 035c aebd bb3e 193d f023 87bd
00000060: 4eba 6d3d 54db ebbc 115c bf3d 973d 6a3c
00000070: 9aa2 6fbd eb86 30bd d074 e1bd 92c1 43bd
00000080: 2e5e 223e 1b83 40bc a54e 91bd d9f5 d63c
00000090: dd49 3039 995b e63d 11b1 623d 67b9 a3bd
000000a0: 1db3 3dbd 8b20 673c 362e 1d3e b35f 853c
000000b0: c3d3 e13d b7e6 88ba 2052 5bbd ed96 7ebd
000000c0: 4b40 11be ac15 fa3d 5d7d 11be 5ed4 90bb
000000d0: fd94 813e 08c6 83be 75c8 b8bd 7a67 01be
000000e0: 37a2 ac3d 72a5 f1bc 3425 ecbc e2ac f43c
000000f0: f01f 943c 0b35 5d3d 4272 adbd bc4b 30bd
00000100: c54a dcbd 7842 1bbd e75d 83bd 8018 9e3d
00000110: 8ead 81bd 3314 a33d 7d94 013d ba26 93bc
00000120: 7de4 8cbd 7ab2 d83d eee5 6ebd 004b df3d
00000130: f21a 783d 871c 42bd 4fab 933d c684 5bbd
00000140: 0853 8c3d 414e 69bd d6b6 77bc c5b4 fbbb
00000150: a407 7d3d c556 9abc 048a 00bd 4eb9 8dbd
00000160: e1f3 b23b 313e d3bd 9f58 9b3d 3c91 8d3d
00000170: 69a2 16bd 6dad f3bd 845f 053e 1b28 bcbd
00000180: 2c4f b6bd 4c80 733d e2df d7bd bcd6 ce3c
00000190: 5e3f 31bb 6353 63bc f797 ebbc 30db eabd
000001a0: 04c3 e9bd a5b3 11be 1d5e 78bd 779c 7cbd
000001b0: a059 9d3d 6bb6 8a3d 4bb0 043d b24f 8ebd
000001c0: 7b7c 74bd b937 13be 4662 b0bd d0f6 6f3b
000001d0: bce2 65bd 3bcd 883d 9031 28be 1ec7 75bd
000001e0: f95c ccbd 6aee b33d 2d8c c93d 31a5 663e
000001f0: 3310 30be 138a 7bbe f4cb cb3d 6633 2fbe
00000200: 93a2 03be 2e3e a83d a4c3 d03d e342 76bb
00000210: dad8 ae3c d36f 1c3c 058c 1cbe c96c 9fbc
00000220: 945b 663d cad4 9b3d 527e 383d 951c 92bd
00000230: c509 e2bd ceb4 c1bc d79b 17be ce92 093e
00000240: 3acf 83bd e144 cd3c f337 79bd 1aea df3d
00000250: 12ff 3f3a ada7 53bd 8f04 23be 58a1 633c
00000260: 4c80 733d ee1b 553d 9e78 2dbe a74c 6fbd
00000270: 2bb7 7f3c 90f7 373d 16fe cbbd 4711 33be
00000280: cc9a df3d 3c8e 28bd 6786 8a3b eaaf 61bd
00000290: 4f47 19bd b58a 65bd 0015 9ebd ac00 8dbd
000002a0: ccdc 26be 3ca8 fcbd 4c9e 0a3c f830 57be
000002b0: 6f87 0a3e a68b c43d a3a0 0abe 1cd3 843c
000002c0: ea38 1abe 502f 1abc a724 b7bd bb60 88bd
000002d0: 8dfc 593e 67db 3dbe 4e3d 2cbe 2c34 cfbd
000002e0: 5e21 f8bd 2686 8b3c 7e67 983c 3180 31be
000002f0: 8397 093e edb2 1fbe 2bc1 15be d7f2 c0bd
00000300: 8109 c6bb d855 7abe 5b3f 9ebc e4d9 fa3d
00000310: a246 c6bc 77fc 1abe 9768 af3d 7ef2 b7bd
00000320: f580 a53d fcc4 0d3e ecf0 30be ea78 133e
00000330: 88d1 f53d 2b66 983d 52be 60bd 0915 e83d
00000340: 0039 883c 5fd8 e73d c9b4 95bc c1c3 17be
00000350: d9d3 203e 6f53 2b3d 7b1c 953c 578d 493e
00000360: 0ea1 b93b 71e7 a5bc ae3f 35be a31c 96bd
00000370: f0c3 27be 26aa a33b cc74 b9bc a3e6 8d3d
00000380: 6699 2dbe 4751 7dbe aea1 2bbd f320 42be
00000390: 701e f13c 4a95 7ebe f4c4 8a3c 42f9 79be
000003a0: 5b04 84bd a3d7 e8bd e787 3ebd 113f c8bd
000003b0: 1367 253d 1d0e 05bc f590 1abe 6eb7 7bbe
000003c0: 0fa8 eabd 032d b53d afdb 40bd f837 cf3d
000003d0: 30d9 27bc d050 a6bd 4e3c 45bd 8f40 ff3c
000003e0: 9644 313e 96b2 53bc bedf d13d 8743 5bbb
000003f0: 45a5 653c 46b0 ebbd 57cf 133d 6225 76bd

fc2.bias f4 [64]
-0.02405642 0.14187694 0.025744304 0.21354076 0.6729598 0.4505604 0.584525 0.4517935
0.022385942 0.41924256 0.18050815 0.13683498 -0.09811502 0.30026463 0.00518922 0.49467608
0.1148282 0.343035 0.344955 0.19255571 0.82427335 0.6727056 0.8344076 -0.08845371
0.060846157 0.123464614 0.03749437 0.13368317 0.11232678 0.072951466 0.015142433 0.10117762
-0.008919379 0.075951196 0.5907166 0.0075129517 0.21612623 0.42273968 0.13272864 0.121138856
0.2650484 0.07740879 0.30285844 0.24921323 0.25651506 0.13597196 0.032907814 0.2966766
-0.086165234 0.03336291 0.8455743 0.5551617 0.15941262 0.0091009885 1.0607108 0.27292582
0.24819006 0.12370268 -0.052932896 0.49957868 -0.050727185 0.2619338 0.6639169 0.47450116
00000000: f811 c5bc 3048 113e b8e5 d23c 6eaa 5a3e
00000010: 1847 2c3f daaf e63e 6ea3 153f 7a51 e73e
00000020: b962 b73c f6a6 d63e 21d7 383e 781e 0c3e
00000030: 87f0 c8bd 49bc 993e 550a aa3b 2f46 fd3e
00000040: 0c2b eb3d 49a2 af3e f19d b03e 532d 453e
00000050: 9403 533f 6f36 2c3f bd9b 553f 3827 b5bd
00000060: d239 793d 04db fc3d b293 193d 3ee4 083e
00000070: 950b e63d 9467 953d f817 783c 3636 cf3d
00000080: 9622 12bc 4d8c 9b3d 3439 173f 352f f63b
00000090: 3250 5d3e 5671 d83e 04ea 073e a617 f83d
000000a0: 6db4 873e 8088 9e3d 4310 9b3e c131 7f3e
000000b0: f155 833e 3c3c 0b3e 58ca 063d ffe5 973e
000000c0: 6677 b0bd 8ca7 083d 8f77 583f 141f 0e3f
000000d0: 103d 233e 501c 153c 5fc5 873f efbc 8b3e
000000e0: 8925 7e3e d557 fd3d 2ad0 58bd c7c8 ff3e
000000f0: 4fc7 4fbd 301c 863e 75f6 293f d1f1 f23e

fc3.weight f4 [10, 64]
0.079994924 0.17786169 0.047731444 0.010687302 -0.47841 -0.21633822 -0.35368252 -0.15220752
-0.28056931 0.17607504 0.1866131 0.1512403 -0.021027882 -0.1580242 0.01934324 -0.17514767
-0.1577756 -0.14948502 0.19966933 0.23268011 -0.26136523 -0.08389077 0.32400358 0.16000868
0.22417483 -0.11317358 0.1710978 0.19366585 0.07948777 0.23345329 0.006056498 0.08300854
0.009903133 0.016745571 0.12488063 0.0630502 0.24206512 0.2237724 -0.035882365 -0.036283143
-0.18074307 0.035983317 0.17546855 -0.1634977 0.21392222 0.30990037 -0.109848134 -0.015872441
0.05889588 -0.10310114 -0.23570906 -0.15807955 0.13643712 0.18568829 -0.06540521 0.13741311
0.18168737 0.19612029 -0.025326034 -0.09250016 -0.07901703 0.15128106 -0.43304932 0.30152634
-0.09042436 -0.25561982 0.11742352 0.2503133 -0.31596988 0.21192887 0.13912773 -0.18463966
0.04987309 -0.24345335 -0.10764671 -0.0060628722 0.039777394 -0.007669676 0.05122721 0.1411517
-0.052435465 -0.062887356 -0.21927485 -0.30273494 -0.092792064 -0.34901658 0.20029105 0.11999948
0.13346083 0.24659029 0.2759187 0.22927293 -0.100587845 0.24396 0.047878187 0.263904
0.15304254 -0.0124702705 -0.045817822 -0.051131506 0.31964466 -0.43939668 0.07114462 -0.051152084
0.27528518 0.033670433 -0.08293818 0.36139676 0.32823172 -0.06668126 -0.14902067 0.108663805
-0.0837733 0.009631769 -0.15550359 0.13629672 -0.112803474 0.09719571 -0.5092797 -0.050217386
0.08806946 0.08539681 0.038274284 -0.08879168 0.14799353 -0.3038943 -0.4922788 0.15591408
0.18477014 0.1515829 -0.13387662 -0.20346782 0.14664228 0.08993512 0.020060157 -0.098541625
0.005750364 0.08829276 0.26549414 -0.108855926 0.22188257 0.022122994 0.071638465 -0.12576054
0.03008396 -0.12397366 -0.052147463 0.14267659 0.2639816 0.052267373 -0.0028104354 -0.0676951
0.13353886 0.15584646 0.14979215 -0.03381286 -0.1662413 0.08158818 -0.02870241 0.05866511
0.121725656 0.1573486 -0.1140899 0.22058494 0.025501255 0.29062456 0.111865096 -0.09933194
-0.10650718 -0.06870234 0.025381362 0.012074754 -0.24200603 0.121023335 0.20755279 -0.25822768
0.035164546 0.11228976 0.063418925 0.06869443 0.0131928045 0.037343655 0.24374011 0.14122008
0.11305198 0.0958716 0.1633634 0.095367394 -0.058072545 0.0773267 0.2951458 -0.055173423
0.096984856 0.022190357 -0.079264656 -0.12446942 0.32930055 0.12999259 -0.15294854 0.18527937
-0.13250752 -0.113591045 0.0039218115 0.11459665 0.024799787 0.0077222344 0.17443486 0.13081944
0.029047066 0.23004097 -0.14380482 -0.008333231 0.28982303 -0.041070804 -0.27716163 -0.065992445
-0.18334526 -0.27897245 0.030433452 -0.13520817 -0.0013108703 -0.117672674 0.12018402 0.10890414
-0.049090736 0.01654534 0.14800744 -0.13264729 0.012643108 0.21318446 0.0645488 0.059267275
-0.025847005 0.16196491 -0.087483846 0.07465838 -0.31137905 0.1923075 -0.10019513 -0.019528253
-0.08563987 -0.08883239 0.2862706 -0.11512017 0.086821735 -0.091583356 0.07135755 -0.109567724
-0.15331814 0.20191278 -0.09157343 0.04084449 0.06562223 0.16080967 0.18591496 -0.22866683
00000000: 61d4 a33d 6021 363e 0c82 433d cb19 2f3c
00000010: 28f2 f4be c487 5dbe e015 b5be 4adc 1bbe
00000020: c8a6 8fbe 044d 343e 8117 3f3e bdde 1a3e
00000030: aa42 acbc 19d1 21be b775 9e3c e959 33be
00000040: ed8f 21be 9a12 19be 1e76 4c3e b243 6e3e
00000050: aad1 85be edce abbd cce3 a53e 51d9 233e
00000060: 168e 653e 8dc7 e7bd 4334 2f3e 5750 463e
00000070: 7cca a23d 610e 6f3e 9675 c63b 6200 aa3d
00000080: c040 223c 022e 893c 6ac1 ff3d 7720 813d
00000090: ebdf 773e 9824 653e 63f9 12bd a29d 14bd
000000a0: b614 39be 3e63 133d 07ae 333e f16b 27be
000000b0: 6d0e 5b3e 43ab 9e3e 0ff8 e0bd ec06 82bc
000000c0: ce3c 713d b126 d3bd b75d 71be 9bdf 21be
000000d0: 2cb6 0b3e 1225 3e3e 2bf3 85bd 06b6 0c3e
000000e0: 410c 3a3e c2d3 483e 8b78 cfbc b970 bdbd
000000f0: aed3 a1bd 6ce9 1a3e a4b8 ddbe a961 9a3e
00000100: 6830 b9bd 9ae0 82be be7b f03d 1129 803e
00000110: cec6 a1be e203 593e 8077 0e3e 2e12 3dbe
00000120: ba47 4c3d d64b 79be e175 dcbd 0fab c6bb
00000130: 9fed 223d e851 fbbb 9fd3 513d 128a 103e
00000140: 92c6 56bd 16cb 80bd 9689 60be 1300 9bbe
00000150: c409 bebd 4db2 b2be 1919 4d3e 4ac2 f53d
00000160: f5a9 083e 2a82 7c3e 3745 8d3e 86c6 6a3e
00000170: 0001 cebd a6d0 793e eb1b 443d 6d1e 873e
00000180: 2fb7 1c3e 1b50 4cbc 78ab 3bbd 456f 51bd
00000190: 77a8 a33e 9af8 e0be 45b4 913d d984 51bd
000001a0: 2ef2 8c3e 02ea 093d 7edb a9bd ff08 b93e
000001b0: fd0d a83e 2f90 88bd e098 18be 218b de3d
000001c0: 5691 abbd 91ce 1d3c 553c 1fbe 5e91 0b3e
000001d0: 8205 e7bd 8b0e c73d 2860 02bf bfb0 4dbd
000001e0: c35d b43d 86e4 ae3d 7fc5 1c3d 6ad8 b5bd
000001f0: 9e8b 173e 0998 9bbe f80b fcbe f1a7 1f3e
00000200: 6234 3d3e 8c38 1b3e f416 09be de59 50be
00000210: 6529 163e e72f b83d 3355 a43c 31d0 c9bd
00000220: 8d6d bc3b d6d2 b43d d9ee 873e dbef debd
00000230: 2f35 633e 483b b53c 30b7 923d 5fc7 00be
00000240: a372 f63c e7e5 fdbd 9498 55bd d019 123e
00000250: 9928 873e 5016 563d 482f 38bb bba3 8abd
00000260: 69be 083e 3796 1f3e 1d63 193e 5a7f 0abd
00000270: 293b 2abe b417 a73d 5121 ebbc d44a 703d
00000280: 4d4b f93d fe1f 213e f7a7 e9bd 05e1 613e
00000290: 02e8 d03c becc 943e 8719 e53d 8b6e cbbd
000002a0: 7020 dabd d0b3 8cbd 93ec cf3c 30d5 453c
000002b0: 6ed0 77be 15db f73d b888 543e 6b36 84be
000002c0: b308 103d 2cf8 e53d c8e1 813d aaaf 8c3d
000002d0: a226 583c a9f5 183d 0297 793e ff9b 103e
000002e0: cc87 e73d 5458 c43d bc48 273e fb4f c33d
000002f0: 7add 6dbd 765d 9e3d 5a1d 973e 87fd 61bd
00000300: ff9f c63d 8dc8 b53c 8255 a2bd d3e9 febd
00000310: 159a a83e c71c 053e 8b9e 1cbe e0b9 3d3e
00000320: 0db0 07be 6ca2 e8bd 8a82 803b a6b1 ea3d
00000330: ec28 cb3c cc0a fd3b 0d9f 323e 88f5 053e
00000340: 1df4 ed3c dc8f 6b3e 9241 13be 1b88 08bc
00000350: af63 943e dc39 28bd 21e8 8dbe 0c27 87bd
00000360: dcbe 3bbe 7ad5 8ebe 934f f93c 0374 0abe
00000370: 82d1 abba 5ffe f0bd 0a23 f63d 2209 df3d
00000380: 5e13 49bd 188a 873c 438f 173e b1d4 07be
00000390: 0a25 4f3c 074d 5a3e 2932 843d 3ec2 723d
000003a0: 19bd d3bc 21da 253e bb2a b3bd 7ee6 983d
000003b0: 136d 9fbe 42ec 443e 1b33 cdbd b7f9 9fbc
000003c0: f563 afbd c2ed b5bd 0f92 923e 20c4 ebbd
000003d0: 98cf b13d 0e90 bbbd e823 923d 0b65 e0bd
000003e0: 6eff 1cbe 39c2 4e3e da8a bbbd 8d4c 273d
000003f0: f364 863d 4aab 243e 7e60 3e3e a327 6abe

fc3.bias f4 [10]
0.048036564 -0.7756769 -0.18977027 0.48698324 0.54612535 0.17613564 0.10240277 -0.26494864
0.028454129 -0.14722677
00000000: fdc1 443d c392 46bf 2353 42be de55 f93e
00000010: dfce 0b3f e75c 343e 8bb8 d13d 59a7 87be
00000020: a218 e93c 9dc2 16be
